source/containers/document-pii-detection/ocr_model/classifier.onnx (onnx, 532202 bytes, 108 tensors)

617 f4 [8, 3, 3, 3]
00000000: b71a 2ebd 88d6 3ebe 3458 9abd dc45 9bbd
00000010: c2a7 ea3d 3b76 8fbc 9269 00be fefa 813e
00000020: 07d7 c23d 21f3 3cbe 0c5e b5be 3f50 bbbe
00000030: 0fae 7cbe e20f e43d beb5 5abe c838 ff3c
00000040: 446a ff3e a6d2 af3e bc9a d8be 0aab f5be
00000050: b1f4 29be c6fd c8bd a780 7f3d 48b0 b2be
00000060: e9a8 b33e 5a0c 463f 8e3e c93d d279 34bd
00000070: f735 283d 9ff1 08bd cc4e edbd f699 b8bd
00000080: 0086 a3b9 28ce 6abd acd4 22bd da99 813d
00000090: d981 6cbc ad7f ea3d cdfc 633d d0a4 5cbe
000000a0: 8876 30bc b75d a93b 8b52 68be 4041 94bd
000000b0: b6c5 a1bc b338 b73c 6d44 093e f259 1c3d
000000c0: 60c0 3ebe 8cb2 473d c04d 5cbc a7c2 a3be
000000d0: 8792 0dbd 1781 77bb f265 193e 093c ab3e
000000e0: 8f8a 003f 68ff 6dbd 47dc e53d c10e bc3e
000000f0: 6bb8 d1be 6cd8 19bf 41ed 9abe e65a a83e
00000100: 29d4 3c3f 194a ca3e 8044 d0be 115b 6f3e
00000110: b7e0 ca3e cb6a 20bf 5b87 55bf 7554 54be
00000120: 3b4a ba3d 6beb d73e d6d1 313d 9f84 59be
00000130: c0a7 213f ecba 373e ea86 0dbf 5395 92be
00000140: 7e2d 8dbe c5fa 3d3e 17f1 1ebf 9bf6 373d
00000150: d8fe 80be 8725 28bf b688 603e f330 443e
00000160: 5f09 463e bcf2 3d3f af1f 9cbe ff73 59bf
00000170: 6ce1 bebc 7357 05bf f587 14bf 3746 313f
00000180: 6c7d b13e aa04 f73e 941a 653f 65eb 2fbf
00000190: 05b6 d4be ce78 de3d 9030 3cbf 10e2 8a3e
000001a0: 52b0 253f 29bb 973d d54b 2a3f 5793 423e
000001b0: 275f 1abb acea 48bd 3b09 b43d 6e53 043e
000001c0: 2ba7 90be 7b6e e33b f4ae d43d 5b1c 5bbe
000001d0: 07d3 5b3c a63d 483d 9a47 00be d0cd fb3c
000001e0: d9dd aa3b f80a 33bf ea80 4b3e 13d4 a83d
000001f0: 3cce a4be 5333 e53d a6b0 4fbe b3f8 48bc
00000200: d25a e93b 80ae 8abd 5174 42be 87f3 5b3e
00000210: 6de1 3abd 89b5 77be a48a 513e 41b2 3ebe
00000220: 662c 363f dd58 123e d431 873e 92f4 cd3e
00000230: 8224 96be 84d0 e6bd aef6 eabe 0a00 1dbf
00000240: 4ff8 813e ed9f 833f 12a7 97bd 84fe f33d
00000250: 3a86 853e 08b7 0ebf e249 fc3d 648b 5abf
00000260: 62a8 1cbf 2290 be3e b2c2 0c3f 5220 74be
00000270: 3c03 963e 64b5 433e dbba e2be 8111 433d
00000280: 2fdb 5abf 3560 44be 6bc7 a1be 6612 dfbd
00000290: 3896 0f3e e1bb 7dbe d470 353e 2c20 8f3d
000002a0: f18a f53c f5e6 cc3e 435b f33c 55c9 b3be
000002b0: c21b 2c3e 1a57 6bbd 8b4e e8be 9687 933e
000002c0: 1548 0a3e 3896 01bd 0605 083f 05e4 55bd
000002d0: d394 96bd 7906 153f d8a0 e0bd 23b2 fdbd
000002e0: 10c1 4d3f 2e2d 903c 44bd babe 9626 1c3e
000002f0: d81c 1bbf fbe7 b93d cb1d d23d 5162 7bbe
00000300: 1a17 edbd 1e37 253e c8f7 0a3d a8d8 5dbe
00000310: 87ec 3d3d 5a2b 643e fcd4 be3d 79d9 9ebc
00000320: f280 13be 47c0 e83b 26f9 923e 12fc ee3d
00000330: 2f3a 16be f757 6e3e 1d93 403e d600 79be
00000340: 6bce a7be 1b12 6fbb d060 df3d fe72 893e
00000350: bedd 3abe a5a1 653e 6abb f63e b623 35bd
-0.042505946 -0.18636525 -0.07536355 -0.07581684 0.114577785 -0.017512431 -0.12540272 0.25386804
0.095136695 -0.18452121 -0.35423315 -0.3658466 -0.24675773 0.11135842 -0.21358392 0.031155005
0.49885762 0.343404 -0.42305553 -0.47982055 -0.16597249 -0.098140284 0.06237855 -0.34900117
0.35089806 0.77362597 0.098263845 -0.04406149 0.04106709 -0.033433553 -0.11587295 -0.09013741
-0.0003118962 -0.057325512 -0.0397536 0.06328173 -0.014435255 0.114501335 0.05566101 -0.21547246
-0.010770448 0.0051686424 -0.22687738 -0.07239008 -0.019747596 0.022365903 0.13405009 0.038171716
-0.18628073 0.04875426 -0.013446271 -0.31984445 -0.034563567 -0.0037766153 0.14980295 0.3344424
0.50211424 -0.058104903 0.11223655 0.36730006 -0.40961012 -0.6009586 -0.30259135 0.3288185
0.7376123 0.39509657 -0.4067726 0.23374583 0.3962457 -0.62662953 -0.8340966 -0.20735343
0.090961896 0.42171797 0.043413006 -0.21241997 0.6314659 0.17942399 -0.5528399 -0.2862955
-0.2757377 0.18552692 -0.62086624 0.044912916 -0.2519443 -0.6568226 0.21927151 0.19159298
0.19339512 0.7419851 -0.30492923 -0.8494262 -0.023300849 -0.5208656 -0.58019954 0.69247764
0.34666002 0.48245746 0.8949368 -0.6871856 -0.4154512 0.108628854 -0.735116 0.27125597
0.6472217 0.07408745 0.6652196 0.19001518 -0.002355525 -0.049051926 0.08790823 0.12922451
-0.2825254 0.0069406605 0.10384932 -0.21397536 0.013417012 0.048886918 -0.12527314 0.030737787
0.0052144346 -0.6993861 0.19873396 0.08243575 -0.32188594 0.1119143 -0.2028223 -0.012266326
0.0071214223 -0.067715645 -0.18989684 0.21479617 -0.04562514 -0.24190344 0.20463043 -0.18622686
0.71161497 0.14291711 0.26405203 0.40225655 -0.29324728 -0.1127024 -0.45891327 -0.61328185
0.25384757 1.028318 -0.07404913 0.119137794 0.2607897 -0.55748034 0.123187795 -0.85368943
-0.6119443 0.3721934 0.5498458 -0.23840454 0.29299343 0.19112164 -0.44283184 0.047624115
-0.854907 -0.19177325 -0.31597456 -0.10892181 0.14022148 -0.24778701 0.17718822 0.06988558
0.029973479 0.40019956 0.029706603 -0.35114542 0.16807464 -0.057456113 -0.45372424 0.2881438
0.1350406 -0.0316374 0.53132665 -0.05221941 -0.07352605 0.58213 -0.109681785 -0.123874925
0.80372715 0.017599668 -0.36472523 0.15249094 -0.6059089 0.0907745 0.10259589 -0.24549223
-0.11576672 0.16134307 0.03392771 -0.21664679 0.04636815 0.22282162 0.09317967 -0.019390808
-0.14404657 0.0071029994 0.2870571 0.11669172 -0.14670633 0.23275743 0.1880612 -0.24316725
-0.32774672 -0.0036479298 0.109071374 0.26845545 -0.1824865 0.22424944 0.4818986 -0.04422351

618 f4 [8]
00000000: e0a3 1140 a33b 7e3f 88eb 2a40 a4cd 1b3f
00000010: ca7f 74bd 44ff 69bd 2e44 983e 5876 413f
2.2756271 0.9930975 2.6706257 0.6086066 -0.05969218 -0.057128206 0.29739517 0.75571203

620 f4 [8, 8, 1, 1]
00000000: df62 e83f 7af3 91bf ffb8 9c3f ad09 63bf
00000010: 06a8 b5bd 3a8e f1be 4125 24c0 46d5 dc3f
00000020: 3c69 9bbd 5ff7 76be c8e6 1fbe f2ee eabe
00000030: 782e a2bd 683c 573e 11de 46bb 0a96 00be
00000040: 6147 d53d 4ce9 a33e 8337 4dbd 7371 02bc
00000050: ad2b 0c3e de89 383d 8936 ebbc 5d85 15be
00000060: 4680 74bf 86c7 063f bc88 083f e62c c5be
00000070: 4b0f 0a3e 5e09 a43e c5ff 1c3e 6a6d b8be
00000080: 3c1f b93e 3ada 50be 9e33 08bf 8d0d 4c3e
00000090: 8c8b 2e3b 14f7 69be d624 0b3e 17c0 dd3d
000000a0: 50c2 a3be 45cc 31bf cc99 8abe abd1 c0bd
000000b0: 08f5 353f 2651 c23d 450c 2ebf f6c4 a6bd
000000c0: c86c 6f3e 78c0 8bbd 6497 dcbd 8a95 f2be
000000d0: b9ee 99be 64df b23e ccbc 443e d788 4f3e
000000e0: 3bd4 48bf 82c9 863e b1ad 563f 95cc 8ebe
000000f0: ae17 783e 32d8 0f3e 7ddf acbd 70b8 f7be
1.8155173 -1.1402428 1.2243956 -0.8868664 -0.088699386 -0.47178823 -2.5647738 1.7252586
-0.07588431 -0.24117802 -0.1561538 -0.45885426 -0.079190195 0.21019137 -0.0030344764 -0.12557235
0.10414005 0.3201393 -0.05010177 -0.007961619 0.13688536 0.045053355 -0.028712528 -0.14601655
-0.9550823 0.526482 0.5333364 -0.38510817 0.13482396 0.32038397 0.15331943 -0.36020976
0.36156642 -0.20395747 -0.5320376 0.19927044 0.002663347 -0.22848159 0.1358827 0.10827654
-0.31984186 -0.69452316 -0.27070463 -0.09414991 0.71077013 0.09488134 -0.6798747 -0.08143036
0.2338134 -0.0682382 -0.10771063 -0.47379714 -0.30064943 0.3493606 0.19212645 0.20267044
-0.7844884 0.26325613 0.8385878 -0.2789046 0.24227783 0.14047316 -0.084410645 -0.48382902

621 f4 [8]
00000000: f134 bfc0 b2f9 bb3f c09e 993e 6e28 123f
00000010: e9f4 3b3f 989f 2140 a99d ab3e 690b bebe
-5.9752126 1.4685576 0.3000393 0.5709294 0.7342058 2.5253658 0.33518723 -0.3711808

623 f4 [8, 1, 3, 3]
00000000: 53d1 473d 0fe3 61bf b33c a7be 75e5 d43d
00000010: f8ea 223f e9f5 15be 44d8 a0bd 2b41 5f3f
00000020: eebf 203e 44bd 863f bb2e c0bf 76b1 5f3e
00000030: 58ae 64bf caad f2bd d426 4c3f ec63 c3be
00000040: 2c30 5a40 da1b a3bf c61c a9be a733 f43e
00000050: 31db fcbd 1c1b 9d3f e27e b43e 08ce d5bf
00000060: 17db ac3f 1a19 c63e 2392 d9bf b2a7 363c
00000070: f4d8 443e b4b3 90bd 7fe2 97bc 5222 243f
00000080: 0719 0ebe 2c8e e6bc 5502 f13e a9f7 95bb
00000090: 6129 0dbd e18a 9b3e ed18 75bd c425 3ebd
000000a0: 7910 5a3f 758a 2fbe 49da bcbb e391 193f
000000b0: 07a5 92bd 151c 8e3b fc62 143e 9959 ffbc
000000c0: 12bb 6dbc f905 733f b5a7 1fbe 7e87 91bd
000000d0: c33d 193f cba7 d9bd 8937 dfbd bebc 9b3e
000000e0: e95f 23be 591d 5cbe a111 883f a49c afbe
000000f0: 0683 203c 2b41 db3e 8609 afbd 0eeb cdba
00000100: 3e30 28bf c9fe b0bd b1d6 26be 1736 01bf
00000110: 414a c43d b9b8 82be e487 3e3d 0903 953d
0.04878361 -0.8823709 -0.32663497 0.10395328 0.63639784 -0.14644589 -0.078537494 0.87208813
0.15698215 1.0526509 -1.5014261 0.2184504 -0.8932853 -0.11849554 0.79746747 -0.38162172
3.4091902 -1.2742875 -0.33029765 0.47695658 -0.12346495 1.2273898 0.35253054 -1.6703501
1.3504361 0.38691026 -1.6997722 0.01114838 0.19223386 -0.07065526 -0.018540619 0.6411487
-0.13876735 -0.028143965 0.47072092 -0.0045766425 -0.03446329 0.30379394 -0.059838224 -0.046422735
0.85181385 -0.17142661 -0.0057633263 0.5998823 -0.07160383 0.0043368437 0.14490885 -0.031170653
-0.014509933 0.9493099 -0.15591319 -0.07105921 0.59859866 -0.10627707 -0.10899264 0.30417436
-0.15954556 -0.2149557 1.063038 -0.34299195 0.009796863 0.42823157 -0.08546738 -0.001571031
-0.6569861 -0.086423464 -0.16292836 -0.5047316 0.09584475 -0.25531557 0.046516314 0.072759695

624 f4 [8]
00000000: 257a 9ebd 0052 cabd 9742 a43f 70f8 6d3e
00000010: c806 463f e4ad bb3e 0061 0f3f 5f35 813e
-0.07738141 -0.098789215 1.2832822 0.23239303 0.773541 0.36656106 0.56007385 0.2523603

626 f4 [8, 8, 1, 1]
00000000: 5417 94bf b5cf 7540 290a 1340 8a50 48bf
00000010: f2a9 c2be b0c3 823f 23d5 35c0 3326 3840
00000020: 983f 2040 6edc da3f 8e5b b7bf 68a7 9ebe
00000030: 8643 9240 836e c6c0 6029 e83e b0ff f9bc
00000040: 867f 84c0 e09d 9fbe 9fa9 6d3f 485c 1bc0
00000050: b4eb 80c0 5190 4bc0 70e7 1ac0 20c5 5c40
00000060: 14e1 84bf 1d04 84bd be3a 1a40 0224 3ac0
00000070: 15a5 cd3e 0f40 80be 02c3 5140 5bc7 0d40
00000080: 37cb a9bf 4c77 b13f b703 15c0 d72b 10c0
00000090: 40a8 61c0 bc34 93be ea30 9440 3fe6 393e
000000a0: 19d1 94bd af47 13c0 1a56 1540 fa97 a9be
000000b0: 4918 1d40 e63a adbf 1228 d3bf 35fa 81bf
000000c0: 0478 56be 114b 0ebf 228a 42c0 ceaa 87c0
000000d0: cabb 4e40 9a5e 1240 90df 97be bed0 b93e
000000e0: 5e10 60c0 bd33 333d fc14 40c0 f4ac c83f
000000f0: b42b 1440 c699 0dc0 3b06 ea3f e713 4140
-1.1569619 3.8408024 2.2974951 -0.7824789 -0.38020283 1.0215969 -2.8411338 2.8773315
2.5038815 1.709852 -1.4324815 -0.30987096 4.5707426 -6.20099 0.45344067 -0.03051743
-4.140567 -0.31175137 0.92836946 -2.4275074 -4.0287724 -3.1806834 -2.4203758 3.4495316
-1.0381188 -0.06446097 2.4098353 -2.9084477 0.4016501 -0.25048873 3.2775273 2.2152927
-1.3265141 1.3864532 -2.3283517 -2.2526758 -3.5258942 -0.2875117 4.630971 0.18154238
-0.07266445 -2.3012502 2.3333802 -0.3312376 2.4546072 -1.3533599 -1.6496603 -1.0154482
-0.2094422 -0.5558329 -3.039681 -4.2396 3.2302117 2.287024 -0.29662752 0.3629207
-3.500999 0.043750513 -3.0012808 1.5677781 2.3151674 -2.2125106 1.8283151 3.0168397

627 f4 [8]
00000000: fd32 7fbf fe5c 313f 5923 3640 8c91 d3bf
00000010: 39c7 7c3f be0f 01bf 5960 243f dd9d a13e
-0.99687177 0.6928252 2.8459074 -1.6528792 0.9874149 -0.50414646 0.64209515 0.31565753

629 f4 [24, 8, 1, 1]
00000000: 38a2 813d 975c 923c bb0d 91bd a841 efbd
00000010: d408 15bc 66a0 3fbd 1a7f 483e 0b61 b8bd
00000020: 8367 b0bd 7c4d fa3d 4359 e63d 123f 52be
00000030: fb64 0b3f 699b ebbe efe4 18be 6c85 f9bd
00000040: 1172 8a3d 1a95 86bd acfb f4bd d8be 6b3e
00000050: 4332 ccbe e9b4 35be 2c96 4dbe 150d 21bf
00000060: f1a2 103e 3aa7 48be ede6 cdbe 0219 443e
00000070: 2ade 233f c9f6 a0be 14bc dcbd e977 d23d
00000080: a91b b4be d370 b7be 490c e6bd 394f 88be
00000090: 3ef1 653e ebc3 c5be 1c6a a7be b6c6 d3bd
000000a0: 48d7 23be 1723 a13e 794d 883e 401d ad3e
000000b0: 662b 083d 7e6a 333e 1581 d9be 9694 f0bd
000000c0: 381d fc3d 4245 ef3d 3d2b d83d db58 4d3e
000000d0: c647 00be baa2 203e f7d5 223d 5833 49bd
000000e0: 2ea6 2a3f 424a f63e 06d8 023e 08ed 003e
000000f0: ce09 db3e d6a7 a7be eb99 b1be 2da1 bd3e
00000100: 8ac9 753e 7f92 f9be 35cf 02bf 436e 333e
00000110: 1c5e ab3d c6c8 b3bd 4268 ba3e 4ba8 a03c
00000120: 3647 683d 65c4 343d 3bc2 abbd 9b7d e1bc
00000130: 62df 3b3c 99fa 99bc a07d 793e 24f7 3cbd
00000140: 022e 0bbd 14d8 133d fa23 36bc 26ed 553d
00000150: 666c 0fbc 756d 3abd 2cfa b33d a83e ba3c
00000160: d374 57bf c8bf 293f 6675 abbe 47c6 a43f
00000170: 403f 843f ee2f 23be 0811 4fbf 6c88 883e
00000180: e1ea 01be dcba 2ebf 62e4 9abe 77ea 89bd
00000190: 582a 0b3e 7dfd 58be 3eab 9fbb 8a0e dfbd
000001a0: 26c2 2bbe 66f1 f7be eae6 7d3e 4dcf 303e
000001b0: ff6f f1be d309 643e 7ee9 133e 7fe8 9dbe
000001c0: 0272 e4bb 44c2 b9bb 17ed 8cbd 227e ab3c
000001d0: c1f3 913d 275d 94bc 28aa 303d 9c0d bf3d
000001e0: e2fd 363e 6260 0a3d 37c9 ff3d dad4 3a3e
000001f0: 4069 803e 1f9f ba3e 1d4b d23e 7612 14be
00000200: c157 06bc f4bb 7d3d e93b 50be 297c a4b9
00000210: b2ee d1bd def2 c23b fe7a 66bd 7cc8 a43d
00000220: 2239 943e 0ca0 013e 98e9 4c3e a6c3 e33d
00000230: 9a67 99be b9cf ae3e b200 073e a67c a5be
00000240: 2639 18bd d350 193d 7a82 0abd 3ea9 f23c
00000250: 541e be3c 8891 00bc 71bd b83d 1859 e73c
00000260: 0d9d f23e abee c2be 78bf 2d3e b69f dcbe
00000270: f09a 33be 0a9e 6e3d e522 29bf 3595 10bf
00000280: 3740 5d3d da06 e53d 5ba9 cabe 7eb5 30be
00000290: 969a e2bd a110 423e 0e2a e3bd 3385 223e
000002a0: b63b 2bbe f35b 273e 84dd 9fbe 5cc5 37be
000002b0: 7907 5e3d 5069 d1be 48a4 933e ba5f 7fbe
000002c0: 7190 83bd a343 1e3e aabe 0bbd 9d9a 83be
000002d0: d28e bd3d 55ec 9bbe e892 1e3f 5ae8 d43c
000002e0: 9a78 57be 206e d13e 8f31 abbe ff3f ac3e
000002f0: 9340 f6be bf20 73bd aadf 603e f67b e3bd
0.06329769 0.017866416 -0.07082697 -0.11682445 -0.009096343 -0.046783827 0.19579735 -0.090028845
-0.08613493 0.1222181 0.11247494 -0.20531872 0.5445096 -0.46017006 -0.14931081 -0.12183651
0.06760038 -0.065714076 -0.11962065 0.2302202 -0.39882097 -0.17744793 -0.20076817 -0.62910587
0.14124657 -0.19595042 -0.40215245 0.19150165 0.6401087 -0.31438282 -0.107780606 0.10276777
-0.35177353 -0.35828266 -0.11232812 -0.26622942 0.22455308 -0.38626036 -0.32698143 -0.103406355
-0.16000092 0.31472084 0.26621607 0.33811378 0.033244513 0.17521092 -0.42481294 -0.117470905
0.123102605 0.11683132 0.10555122 0.20053427 -0.1252738 0.15687075 0.039754834 -0.04912123
0.6665982 0.4810353 0.12777719 0.1259042 0.42780918 -0.32745236 -0.34687743 0.3703703
0.24002662 -0.4874458 -0.5109742 0.1752253 0.08367559 -0.08778529 0.36407667 0.019611498
0.056708537 0.04413261 -0.08386656 -0.027525714 0.011466833 -0.018796252 0.24364328 -0.04613413
-0.033979423 0.03609474 -0.011116976 0.052228115 -0.008753872 -0.045514543 0.08787951 0.022734955
-0.84162635 0.6630826 -0.33488005 1.287301 1.0331802 -0.15936252 -0.8088536 0.26666582
-0.12687255 -0.68253875 -0.30252367 -0.06734174 0.13590372 -0.21190448 -0.0048727086 -0.10891445
-0.1677328 -0.4842636 0.24795118 0.17266579 -0.4715576 0.22269373 0.14444539 -0.30841443
-0.0069715986 -0.00566891 -0.06881159 0.020934168 0.071265705 -0.018110825 0.043131024 0.09328768
0.17870286 0.033783324 0.124895506 0.18245259 0.250803 0.36449525 0.41072932 -0.14460167
-0.008199633 0.061946824 -0.20335354 -0.00031373024 -0.10250606 0.005949362 -0.05626964 0.08046052
0.2894984 0.1265871 0.20010984 0.11121301 -0.29961854 0.34142855 0.13183859 -0.32321662
-0.037163876 0.037430596 -0.03381584 0.029621717 0.023207821 -0.007847197 0.09020508 0.028240725
0.47385445 -0.38072714 0.16967571 -0.430906 -0.17539573 0.058256187 -0.6606887 -0.5647767
0.05401632 0.111829475 -0.39582333 -0.17256734 -0.11064641 0.18951656 -0.11092006 0.15871124
-0.16721997 0.1634367 -0.3122369 -0.1794638 0.054206345 -0.4090066 0.28836274 -0.2493886
-0.064240344 0.15455489 -0.03411738 -0.25703898 0.092557564 -0.30453745 0.6194291 0.0259897
-0.210421 0.4090433 -0.33436248 0.33642575 -0.4809614 -0.0593574 0.21960321 -0.11107628

630 f4 [24]
00000000: f07d 163f cec1 ca3d 7b38 9e3e b053 6fbe
00000010: 8924 d2bd a213 cb3e c6df 3b3f 7e63 793e
00000020: a834 d9be ebfb 153f 738f 393f 8933 003f
00000030: 2ee6 99be 3fa5 87be 16b7 463f e45a 903e
00000040: 5185 263f 3906 b9bd a1dc 2f3f 2be8 cebc
00000050: 8f96 b13e 488d 8f3d fb84 99be 21fb 8c3e
0.58785915 0.099002466 0.30902466 -0.23371768 -0.10260875 0.39663416 0.73388326 0.2435436
-0.42422986 0.5858752 0.7248451 0.50078636 -0.30058426 -0.2649326 0.77623117 0.28194344
0.65047175 -0.0903439 0.6869603 -0.02525719 0.3468518 0.07009369 -0.2998427 0.27535346

632 f4 [24, 1, 3, 3]
00000000: a97b bdbd b56e 74bf 443e 7f3f 459c 13bf
00000010: 6e81 3c40 6eeb 04c0 5d99 0f3f 4ce0 05c0
00000020: 74f6 a03f 6306 053e 4bec 243f f0ab 85be
00000030: 4b67 563f 0f69 06bf 22bb 83bb 9a45 a9be
00000040: 9887 05bf 429a 15be b525 11bf 75df 5f3c
00000050: 2f17 dbbd a0f6 74bf 49fa 113e 3ed8 273d
00000060: f0e2 56bf 0e62 983e 7085 52bd c6f0 89be
00000070: 97ae 5cbe 961b 8eb9 41b8 8abe 8153 2fbf
00000080: 2361 4ebe 0a13 ccbd 9365 05bf db40 65be
00000090: ce8c d93c dff2 d93e 85fb 72bd 1f02 10be
000000a0: aa72 733f fef6 67bd 5637 423e 8dd9 033f
000000b0: 34cb 95bd 46bc 55be 0242 063f 6c42 32be
000000c0: b5e6 09bf edc6 973f 67f0 96be 3604 ddbe
000000d0: d00e 593f 2402 0abd f34a 31bd 3396 ac3e
000000e0: 6843 4dbe 23c8 d43e d7f1 a7bf 9054 0f3f
000000f0: 7693 9fbf ec54 3940 e409 b4be 65ef 3e3d
00000100: 5b7b 843e cb1c 073d 1f89 873d a9cf 373f
00000110: 6a59 183d b7ed 863e cad3 fb3e 1cd4 553c
00000120: 3c92 7cbd 8d42 2abe f06e c6bd 0938 38be
00000130: 5431 fcbe df51 31be 7ac0 36be 5a23 bebe
00000140: c2c9 c1bd bea2 363f 3741 e93d ba9d 6cbf
00000150: 3d11 84be 2deb b73f b684 90bf ba7d 6dbf
00000160: 4f42 0d40 42b5 6cbf 6139 0dc0 0563 0d40
00000170: 7eb4 da3d 9be5 a040 3a6b bfc0 c9f7 863d
00000180: 4893 97bf d35b 763f 06cc 013f 6fb3 6bbd
00000190: 539f 17bd b521 84bb b32f f5bd 6fa9 12be
000001a0: 7df1 ad3c fdd2 d4bd 4a01 0bbe d321 0fba
000001b0: 8e7b bd3c 7624 bf3e 5c1b 193d 5b65 e9bc
000001c0: 1944 643f ce8b 863c fdd2 f23c 587c 2e3f
000001d0: df22 593d ccf1 8ebe d291 d3be 1d67 f93d
000001e0: a747 f7be d408 3dbf 6d9d b83d 29a2 9abe
000001f0: bb30 00bf 0d1f 11be 441b 90bf 9f0b 843f
00000200: 41b1 353d 5782 d8bf 7a19 0740 70bf 163f
00000210: 960e 8fbf 7bcf 933f 9652 003f db6b 3bbe
00000220: 3638 b23f 25d5 fbbd 5308 1dbd fd47 fa3f
00000230: 3571 9d3e f1f9 4fbe b38a c83f 2bba 903c
00000240: 8ac4 263f b1a1 c63b 3b46 7d3f fa95 86be
00000250: 5b32 9ebf bbd2 afbe 35c7 113f 2337 073f
00000260: 60cd 093f 52a3 47be 9c99 933e 0746 c33d
00000270: f18c 583e d372 9e3f b601 b2be 2805 1f3f
00000280: efb5 8fbd 4931 88be a0c4 b03e 9df4 153e
00000290: 2c68 fbbe 540d 6ec0 e4e6 1740 c2a5 aa3f
000002a0: dd68 8d40 913d 69c0 512e 5bbf a0b4 c93d
000002b0: 4824 8f3e ea24 75bd c250 403e d37d db3e
000002c0: b507 2cbd 1363 883e 5869 8f3e 17e1 003c
000002d0: f14d ab3d 0964 f53e 70fa 363e 2adb 8bbe
000002e0: bbec 613f d046 87be df42 ecb9 64e7 893f
000002f0: 7b52 d73d 7f45 22bd d8ab aebe 332b 01bd
00000300: 9842 3a3e 8ea7 48bf a365 613e 58de 733d
00000310: fdbd 0dbf cc59 013e 65e8 ecbc 7f56 273f
00000320: 05cd 8dbe f644 f33b dfe8 703f dc62 d93d
00000330: 23be 0a3e cdfd 583f 15db 1dbd 6b30 bdbd
00000340: bf30 f8be b21f cebc e144 c1bd a9f2 5cbf
00000350: ca13 7abd 6b08 e53b 32ca 11bf c94a 86bc
-0.09252102 -0.95481426 0.99704385 -0.57660323 2.9453998 -2.0768695 0.5609339 -2.091815
1.2575212 0.12990718 0.64423054 -0.2610774 0.8375136 -0.52504057 -0.0040201107 -0.33060914
-0.52160025 -0.14609626 -0.5669816 0.013664116 -0.10697781 -0.9568882 0.14255632 0.04097771
-0.8394003 0.2976231 -0.051396787 -0.26941508 -0.21550976 -0.00027104904 -0.270937 -0.6848679
-0.20154242 -0.09964569 -0.52108115 -0.22388022 0.026556399 0.42568108 -0.0593219 -0.14063309
0.9509684 -0.056632034 0.18966421 0.5150383 -0.073141485 -0.20872602 0.5244447 -0.1740815
-0.53867656 1.1857582 -0.29480287 -0.43167275 0.8478823 -0.033693448 -0.043284368 0.33708343
-0.20045245 0.41558942 -1.3120679 0.5598841 -1.2466877 2.8958082 -0.35163796 0.046615023
0.25875363 0.032986443 0.06617951 0.7180124 0.037194647 0.26353237 0.4918502 0.013051059
-0.061662897 -0.1662695 -0.096891284 -0.17990126 -0.49256384 -0.17316388 -0.17846861 -0.37136346
-0.094623104 0.71342075 0.11389392 -0.9242817 -0.25794402 1.4368645 -1.12905 -0.9276997
2.2071722 -0.9246408 -2.2066271 2.2091687 0.106789574 5.028028 -5.981839 0.0659023
-1.1841822 0.9623386 0.5070194 -0.057544168 -0.037017178 -0.0040323385 -0.119719885 -0.14322446
0.021233315 -0.10391805 -0.1357471 -0.00054600573 0.023130205 0.37332505 0.037379608 -0.028490713
0.8916641 0.016424086 0.029641623 0.68158484 0.05301177 -0.2791885 -0.4132219 0.121778704
-0.48296854 -0.73841596 0.090144016 -0.30201843 -0.50074357 -0.14172001 -1.1258321 1.0316046
0.044358496 -1.6914777 2.11093 0.5888586 -1.1176326 1.1547693 0.50126016 -0.18302862
1.3923404 -0.122965135 -0.038338017 1.9553219 0.30750433 -0.20310189 1.5667328 0.017666897
0.65143645 0.0060617556 0.9893529 -0.26286298 -1.2359117 -0.34340462 0.5694459 0.52818507
0.53829 -0.19495896 0.28828132 0.09534841 0.21147515 1.2378792 -0.3476693 0.6211724
-0.07017123 -0.26600102 0.34525013 0.14644094 -0.49102914 -3.7195635 2.3734674 1.3331835
4.4190507 -3.6443827 -0.8561755 0.098489046 0.27957368 -0.059849657 0.18780807 0.42869434
-0.041999537 0.26638088 0.28010058 0.007866166 0.083644755 0.47927883 0.17868972 -0.27315646
0.8825185 -0.26421213 -0.0004506325 1.077374 0.10513779 -0.039617058 -0.3411548 -0.03153534
0.18189466 -0.7838067 0.22011428 0.059538215 -0.55368024 0.12631911 -0.028919408 0.6536636
-0.2769548 0.0074239923 0.94105333 0.10614559 0.13549094 0.8476227 -0.03853901 -0.092377506
-0.4847469 -0.025161598 -0.09436966 -0.8630777 -0.06105403 0.006989529 -0.5694915 -0.016393082

633 f4 [24]
00000000: 30d3 d5bb ee5d 053d 2914 843f aed2 fe3e
00000010: f04b f63c 00a6 f4bd 3250 51bf 109c 4a3e
00000020: d5f4 a73f 62c6 70be 8dda bd3e 832b 0e40
00000030: 5f4f c93e 8dd6 8b3f cb52 94bf b17d f6bf
00000040: 7df5 a2be 001d 21bb 24e2 833d c0ee 093c
00000050: b2f1 323f 2853 193f 0095 b03b d3da 1e3f
-0.0065254197 0.03256028 1.0318652 0.4977011 0.030065507 -0.119457245 -0.81762993 0.19786096
1.3121592 -0.23513177 0.37080804 2.2214057 0.39318368 1.0924851 -1.1587766 -1.9257108
-0.31827918 -0.0024583936 0.06439617 0.008418739 0.6990005 0.5989251 0.005388856 0.6205265

635 f4 [8, 24, 1, 1]
00000000: dbba f9bd 4922 7cbe ff4c 1e3e 8206 a3be
00000010: 2eea c1bd 1217 2a3d ded5 813d a134 c33d
00000020: 14c5 98be 222e ecbd 6839 08be c86f 12bf
00000030: d901 d23e e0a5 423e bb3c 5b3e a395 903e
00000040: ac82 603e 0649 fdbd 26c3 3ebe 654b 47bd
00000050: 7096 17bc 3d10 ac3e 58ca 4cbc a1a6 e93e
00000060: 7312 93be d4fa d4bd 77b8 c33e 2310 813e
00000070: f2b2 a63e 0fd2 a3be c857 e33d 4602 f33d
00000080: a372 213f 598d bcbe 94f6 c3be 8c13 833f
00000090: b379 80be 1a0c 9e3e 8d62 86be 12bc 913d
000000a0: 5ea7 1d3b a32f 48be 8073 d7be 72ca 12be
000000b0: 0a5d ed3d 322c 033e 711f a43e 62c0 b83e
000000c0: be71 2fbc a4c4 aebe c857 45be 32a0 263f
000000d0: 97dc 11be d855 22be 9ee9 d7bd f89c 49be
000000e0: c5bb a13e fc72 bb3e 6e66 b73d 7c00 f93e
000000f0: 35e2 bdbe b087 a83e a489 983d 8350 d3bd
00000100: 2564 ebbd 4eb7 21be 9dd4 3f3d 9d94 c9bc
00000110: 2e6f ab3c 00dc 64bd 602e 9dbe 8b8b 91bd
00000120: 4cf1 d1bd 0f4c 2d3e b1b1 12be f072 673d
00000130: fbba 99bc 7193 a03e e980 10be 26b1 3fbe
00000140: 9fd0 903e ada6 8cbe ca44 83be 145f f2bd
00000150: 80c6 bb3d 4527 acbd 29e8 f03d 6303 c73e
00000160: 21b8 053f 5d8d ad3d 2157 41be ca60 963e
00000170: 9a9a 26bf 1547 0f3e 3384 893d 8b3d d53e
00000180: a4e1 d7bd 4fed 0c3e 2788 77bd 1e21 ca3d
00000190: 51d9 83bd 6347 963e 0484 343e 8431 2b3e
000001a0: 2135 b63d 6229 04be 65b6 21be df25 3f3d
000001b0: 566c 6c3e 9cc0 96be 3888 ba3d 1c90 613b
000001c0: 115a a5be 2e41 823e 4ce1 d6bd d944 853d
000001d0: c76d 333f d528 0e3e a4c3 a3be f043 bcbe
000001e0: d630 f8bd 3e4c 763d 7f8f e5be bb19 e9be
000001f0: 572c b43e 9456 0dbf a5f6 ee3e 7c93 053f
00000200: 3f2d 9ebc 9f6e 04bf d699 94be 199d e23e
00000210: 8d73 1a3e 585f 99bd dfd6 3abf de74 b1bd
00000220: 78cb d93c 91cf e83e ae88 85be 4372 00bf
00000230: 5863 57bd d02b b7bd a86b 46be bd70 80be
00000240: e77c 093e ceb1 adbe 7245 e53c f5dc dd3c
00000250: 2474 b8be 7f4f 673e 3f90 003f 67f0 9a3e
00000260: 7799 1d3d cbe5 983e 0106 7f3e 6faa 5fbd
00000270: 0486 c83d f084 98be ada8 84bc 8265 0bbd
00000280: df55 193d cb9f a53d db0a a53d 5946 e43e
00000290: fc61 3ebe 453d 523e 16c8 afbc a998 61bd
000002a0: 6906 9dbe 80a3 3e3c 86c1 ab3e bf04 a6be
000002b0: bfb8 413d eb3d 2c3e 8302 b43e 8a2b a83e
000002c0: ba12 64be 1413 db3d bdf5 87be 58b5 4cbe
000002d0: 623f 9d3e 029d c3be a027 c63e 8e08 c7bd
000002e0: 5cfb fc3c 7ada 8b3e f494 93be 8fc1 9dbe
000002f0: 5dc0 afbe cbf9 bd3e a00b b7be 9685 5e3d
-0.12193843 -0.24622454 0.15459059 -0.31840903 -0.09468494 0.041525908 0.0633962 0.095315225
-0.2983786 -0.11532237 -0.13303149 -0.57201815 0.41017035 0.19008589 0.21409886 0.28239164
0.21924847 -0.12367444 -0.1862913 -0.048655886 -0.009252176 0.3360614 -0.012499414 0.4563494
-0.28725013 -0.10399404 0.38226673 0.25207624 0.325584 -0.319962 0.11100727 0.11865668
0.63065547 -0.3682659 -0.38274062 1.024034 -0.2509285 0.30868608 -0.26247063 0.0711595
0.0024056057 -0.19549422 -0.42080307 -0.1433504 0.115900114 0.12809828 0.32055238 0.36084276
-0.010708271 -0.341344 -0.19271767 0.6508819 -0.14244305 -0.1585306 -0.10542606 -0.19688785
0.3158857 0.36611164 0.08955084 0.48633182 -0.37086645 0.3291602 0.07448128 -0.10318091
-0.114937104 -0.15792581 0.046833623 -0.024606997 0.020927038 -0.05587387 -0.30699444 -0.07106694
-0.10251102 0.16923545 -0.14325596 0.056506097 -0.018765917 0.3136249 -0.14111675 -0.1871992
0.28284165 -0.27470914 -0.2563842 -0.11834541 0.0916872 -0.084059276 0.11763031 0.3886977
0.52234083 0.084742285 -0.18880893 0.2937072 -0.65079653 0.1399196 0.06714668 0.41648516
-0.105410844 0.13762401 -0.06043258 0.09869598 -0.06437934 0.2935134 0.17628485 0.16718107
0.08896852 -0.12906411 -0.15792234 0.046666976 0.23088202 -0.29443824 0.09108013 0.0034418171
-0.32295278 0.25440353 -0.10492191 0.06507272 0.7008938 0.13882764 -0.319852 -0.36770582
-0.1211869 0.060131304 -0.4483604 -0.45527443 0.3519008 -0.5521023 0.4667255 0.5217817
-0.019308684 -0.51731294 -0.29023618 0.4426048 0.15083142 -0.074888885 -0.7298412 -0.08664869
0.02658628 0.4547086 -0.2608084 -0.5017435 -0.052584976 -0.089439034 -0.19377005 -0.25086012
0.13426553 -0.33924717 0.027987216 0.0270829 -0.36026108 0.22588919 0.502201 0.30261537
0.038476434 0.29862818 0.24904634 -0.054605898 0.097911865 -0.29788923 -0.016193712 -0.034032352
0.03743541 0.08087119 0.08058711 0.4458492 -0.18592066 0.20531185 -0.021457713 -0.05507723
-0.30668953 0.011635661 0.33546084 -0.32425496 0.04729533 0.16820495 0.35158166 0.32845718
-0.22272769 0.10696998 -0.2655467 -0.19991052 0.3071242 -0.38205725 0.38702106 -0.097184286
0.030881576 0.27315122 -0.2882458 -0.30811736 -0.3432645 0.3710464 -0.35751057 0.054326616

636 f4 [8]
00000000: 7897 2d3f 7e95 48c0 5ecb 3fbf ee62 da3e
00000010: 8ff5 94bf e4d3 7bbe 4aeb 89be 4481 833f
0.6780925 -3.1341243 -0.7491969 0.42653602 -1.1637439 -0.24592549 -0.26937324 1.0273824

638 f4 [32, 8, 1, 1]
00000000: cebe 6f3d bcbf 0bbf 00c2 ba3e 9676 473e
00000010: 102c 0d3f 49ff 9d3e 758a 44be 2795 d73e
00000020: 0b39 103d 66dc a1be 1361 5a3e 80f6 633e
00000030: 4853 bf3e e2b1 473e b731 813d 9756 313c
00000040: bcdb c83e e847 3cbe 8ecb 1c3f bef7 30bf
00000050: 0d50 0bbf 50e8 9c3e 69cf 9c3f 353d fcbe
00000060: c638 bb3d d405 4b3e 1d97 51be 50a9 43be
00000070: 3b71 e23e 7a87 2d3e 7127 23bd d1b1 a73d
00000080: 1c84 05be 6cc6 51be 2c48 9d3b 2ae7 c3be
00000090: 066f 313e 1df1 bfbd 37c6 77bd 586d 35be
000000a0: b31a acbe 05d5 623d 31b1 3f3e cca1 6b3e
000000b0: b99e 873e 5ac5 913b 67a2 893e 631f 34bd
000000c0: f2a6 e23e 0eb8 22be 2294 babd f74e c3be
000000d0: d3f5 1ebe 87c6 193e 55d1 50be 6b0d c83d
000000e0: f7f2 f33e 03ed 87bd 7a8c 3cbe 3db7 46be
000000f0: da57 1fbe df12 11bc 31cf f6bd a7f5 c9bd
00000100: fad4 85be 1e1e 063d cba4 04bd eabd 073e
00000110: 9eda 233e 80b6 c4bd 1921 943e 5e05 a8bd
00000120: 65f3 243d 37ca 1abe 36e5 1bbe 58b4 f8bb
00000130: e0a0 213c 6eea cabd 3bd8 2a3d 40cf 6b3e
00000140: 8c88 1bbc d120 0c3e 9f97 80bd 1aa3 7a3e
00000150: e7ab efbd 9742 6f3d ab39 243c 1101 033e
00000160: 2115 5a3d 0b3a 44be f7bf 1abe 5b3d 0bbd
00000170: 4508 d4bd 879e 11be 1d42 c23d 8fe9 31bb
00000180: 3abc 593e a8e3 98be bcef fd3c 929b d63c
00000190: c727 0d3b 14c5 3abe 2b82 863c 6bfb 3b3e
000001a0: efd2 933e a497 0e3d d13b 67bb 8bb6 fcbd
000001b0: ac61 bf3d ee33 13be 6dab 863e b88c a23d
000001c0: 56ce f4bd e0c4 f03e 8eaa 1c3e 2125 e63d
000001d0: 922a a1bc 50b3 b73e efb7 8ebd a6d8 8bbd
000001e0: cdfe 29be b61e 473c d5f8 ca3d 391f 303e
000001f0: 82e0 163e 1dcc 2fbc 8a9d 303e 6907 8a3c
00000200: 25a7 cebe 190a 94bd a0c5 263f dae3 1c3e
00000210: 264e 0dbf 83d6 0e3d 58e9 76be ff84 403f
00000220: 2517 953e a4fe 163e 6904 86bd 7e99 d03d
00000230: 5beb 96be 656e d83d bd1d ac3e edd9 e1bc
00000240: 81d9 0bbe 7f71 a9bd 8abb 2f3e da62 12be
00000250: bbf4 5dbc 3bd5 aa39 94b2 25be 1c79 b9be
00000260: ca39 89be dbd1 873e 53be 09bf 3796 fe3d
00000270: 3bff 4e3e f88a acbe a82b be3d d97c 753d
00000280: 412f 18be 7302 26be 60f9 e2bd f9cc 7cbe
00000290: 2070 ca3d 1e23 d5bd f19c 75bd 27c3 e6bc
000002a0: 68ce d8bd 4c37 443e e0e5 003c 2723 26be
000002b0: 71a9 953e f4d0 a9bd 909e 1dbe 3f81 5c3d
000002c0: 7fa1 5abe 5d69 9cbe 2e15 75bd 1102 8a3d
000002d0: 6165 b43b cd3d d43e efcf 0b3e 8cd6 69be
000002e0: bac4 22be abf5 243e dcb2 263e 7143 dcbd
000002f0: 9058 a63e f427 eb3e a24e b2be 0418 1cbe
00000300: d116 313d 9f1d b8be e4b7 d63d 453d 5dbd
00000310: e73e cebe 9868 e0bd 3e6b 6c3e 4125 0dbf
00000320: 1167 643c 463e 433d 1deb 73be 0fbc 9cbe
00000330: 2e8e b6be e3b7 38bd 87d4 7bbe e759 953d
00000340: 861c e5bc f984 55be 9ba1 22be 4758 1c3d
00000350: 907d 23be f859 16be 8587 143e ee9d 68bd
00000360: 9bbb 6a3d c30d 6dbe 98f2 3bbe 8a9e 6c3e
00000370: 2233 d53d d5e5 97be a2a0 b6bd 2e91 01be
00000380: 6a83 88bd 53ea 31be effb 3b3d 0c9a 4d3e
00000390: 5ebf 93be 8d8d 13be c05c 9dbd 066e a53e
000003a0: 587a 25be 46c4 4fbe fc06 a5be bc94 463d
000003b0: 248d de3c ad78 403e b765 edbd 95a5 6d3e
000003c0: 1c03 eb3d 9770 673e b33a c13e c416 24bd
000003d0: c7c0 e0bc bd2b 883e 8480 9bbd 5f81 053d
000003e0: 5cc7 b03e 4dee c3bd 1423 d2bd 8529 0f3f
000003f0: c656 2abe 60d2 96be 9c28 323e 8e08 bf3d
0.058531575 -0.5458944 0.36476135 0.1947883 0.5514536 0.3085883 -0.19193442 0.42105982
0.03521065 -0.31613463 0.21326093 0.22262001 0.37368226 0.1950145 0.063083105 0.010823867
0.39230144 -0.18386805 0.612481 -0.69128025 -0.5441902 0.3064599 1.2250797 -0.49265447
0.09141688 0.19826442 -0.20467801 -0.19107556 0.44227013 0.16946211 -0.039832536 0.08188213
-0.13038677 -0.20485848 0.0047998633 -0.38262302 0.17327508 -0.093721606 -0.060491767 -0.17717493
-0.3361412 0.055378933 0.18719937 0.2301094 0.26488283 0.004448575 0.26881716 -0.043975245
0.44267994 -0.15890524 -0.09110285 -0.38146183 -0.15523462 0.15017138 -0.20392354 0.09768184
0.47646305 -0.06637003 -0.18412963 -0.19405837 -0.15560856 -0.008854597 -0.120512374 -0.098613076
-0.2613905 0.032743566 -0.03238372 0.1325604 0.16001365 -0.096051216 0.28931502 -0.08204149
0.04027118 -0.15116201 -0.15224156 -0.007589858 0.009865016 -0.09907995 0.04171012 0.23028278
-0.0094930045 0.13684393 -0.062789194 0.24476281 -0.1170271 0.058413114 0.010023515 0.12793376
0.053242806 -0.19162767 -0.15112291 -0.03399406 -0.1035314 -0.1422063 0.09485266 -0.0027147268
0.21263209 -0.29861188 0.030998103 0.026197229 0.0021538602 -0.18239242 0.01641949 0.18357627
0.28871867 0.034812585 -0.0035283456 -0.12339505 0.09344801 -0.14375278 0.26302662 0.07936996
-0.11953418 0.47025204 0.15299436 0.112375505 -0.01967362 0.35878992 -0.06968676 -0.06828432
-0.16601105 0.012153318 0.09910742 0.1719941 0.1473408 -0.010729817 0.17247596 0.016849237
-0.40361896 -0.072284885 0.651453 0.15321293 -0.5519737 0.034872543 -0.24112451 0.75202936
0.2911922 0.14745575 -0.0654381 0.10185526 -0.29476437 0.10567931 0.33616439 -0.027569735
-0.1365719 -0.08273601 0.17161384 -0.14295521 -0.013547118 0.00032583796 -0.16181403 -0.36225212
-0.26801902 0.26527295 -0.53806037 0.12430995 0.2021455 -0.33699775 0.092856705 0.059933517
-0.14861776 -0.16211872 -0.11082721 -0.24687566 0.098846674 -0.10407089 -0.059964124 -0.028169228
-0.10586244 0.19161719 0.0078673065 -0.16224347 0.29230836 -0.08291808 -0.15392518 0.053834196
-0.21350668 -0.30549136 -0.05983465 0.067386754 0.0055052494 0.414534 0.13653539 -0.2283575
-0.15895358 0.1610934 0.16279167 -0.10755051 0.32489443 0.4592892 -0.34825617 -0.15243536
0.04323465 -0.359601 0.10484293 -0.05401351 -0.40282366 -0.1095745 0.23087785 -0.5513497
0.013940589 0.04766681 -0.23820157 -0.30612227 -0.3565535 -0.045097243 -0.24592791 0.07292538
-0.027967703 -0.20851506 -0.1588196 0.038170125 -0.15965867 -0.14682758 0.14504822 -0.05679124
0.05730782 -0.23149781 -0.18354261 0.23107353 0.104101434 -0.29667535 -0.08917357 -0.12653038
-0.0666569 -0.17374544 0.04589456 0.20078295 -0.2885694 -0.14409466 -0.07683706 0.32310504
-0.16159952 -0.20289716 -0.3223189 0.048481688 0.02716691 0.18796034 -0.11591666 0.23207696
0.114752024 0.22601543 0.37740096 -0.040060773 -0.027435673 0.2659587 -0.07592872 0.03259408
0.345271 -0.09566937 -0.10260597 0.5592273 -0.16634664 -0.29457378 0.17398304 0.093278036

639 f4 [32]
00000000: 2bb9 1d3e de21 ca3e ea18 ac3e cd57 013f
00000010: 3d9e 0a3f 4509 fe3e 8335 ad3e 4882 0d3f
00000020: 7e27 0f3f 6d19 a63e 7a08 113f ac9c e23e
00000030: e20f 8e3e 4985 c93e 40c0 d13c cf50 163f
00000040: 9457 24be 4d54 0d3f a2d2 f83e 6675 f03e
00000050: f4fc 033f 5658 403f 2d37 273f be23 4a3e
00000060: 5433 033f 0d6d 063f 4b0f dc3e de09 c63e
00000070: 6705 aa3e a8c0 073f 0255 a5be a4b0 45bd
0.15402667 0.39478964 0.33612758 0.505246 0.541477 0.49616447 0.3382989 0.5527692
0.55919635 0.32441273 0.5665356 0.44260156 0.27746493 0.393595 0.025604367 0.58717054
-0.16049033 0.5520676 0.485982 0.46964568 0.5155785 0.7513479 0.65318567 0.19740197
0.51250196 0.5251015 0.42980418 0.38679403 0.33207247 0.53028345 -0.32291418 -0.04826416

641 f4 [32, 1, 3, 3]
00000000: 07e6 5fbc 4281 18be ec07 a03e e110 05bf
00000010: 23bd 3cbf a528 ffbe 6a7c 603c b976 febd
00000020: db56 1abe d3e6 80be 3782 92bf 07a8 2a3e
00000030: 0c16 57bf ef52 1840 9704 883e 658d 473f
00000040: a2ff 93bf d2a8 efbe 5118 953c 10b1 873e
00000050: e0d0 df3d 1c3f 4dbe 1193 46be a1c2 8dbe
00000060: 48a7 4c3e 650b ee3e 4661 ee3e ba90 26be
00000070: 80c0 69be 7e32 af3d cd71 23bf 1d5b d9bf
00000080: 4665 dd3d df74 943e 0b5e 1dbf 8a27 4fbe
00000090: a980 353e a013 b6be f7fd 30bd 8c77 77bd
000000a0: b570 abbf 83d1 0abf b95b 9abd cc13 4cbf
000000b0: fcb0 9b3e 3f3c 8d3e 94c6 57bd a81e c13d
000000c0: 37e7 4d3f 1dc9 073f b06f 353f f852 45bf
000000d0: c2f6 f4be 00be 3abf a67c 5cbe c673 97bf
000000e0: 6512 6e3d 5bc5 b5be ed2d 0c40 f1db 3cbd
000000f0: 7702 b53e cc05 98bf a80a 91be d151 00bd
00000100: 22fb f43d cb76 4bbe 00f9 133f de8a fc3e
00000110: c098 56bf 6f3a dcbd 005c bb3e f742 04bf
00000120: 423c 93be 5c7e 02bf 39df a43e bb0e 383e
00000130: 8a0e e4bf b0dc 3dbf f044 523f 3757 953f
00000140: f64b e0be ddb6 46bd 678a 323f 852c eb3d
00000150: 09c9 253f e94c d83c 3be2 b53e a1d1 a03c
00000160: f52a 303f 585e 6dbc 021d 9f3e 87f8 3d3f
00000170: f501 473f 5760 92bf df8b e0bf cd78 6cbf
00000180: be95 723f 565e 533c d168 013d 3526 42be
00000190: 2f46 663e e692 733f 45a8 0ebf 416c 35c0
000001a0: feab 623e 6dc3 8e3f 4582 173f 45a0 c8be
000001b0: 0281 9e3e 41c4 6ebc 3ada c23e 2692 54be
000001c0: ea95 92bf 63e8 0bbf d9b6 d43d 873e 3abf
000001d0: b58c 05be f6d2 66bc a9cf c3be 4b39 0d3d
000001e0: 2a30 74be c01a 1cbf 4c60 d43e e3d1 f23e
000001f0: 2823 c73f 278a 783d e6e7 ffbb b7a2 ba3e
00000200: b6b0 a3bc f010 76bf 9ed0 08c0 442c 12bf
00000210: c530 c83e 5dbc 2a3f b366 2c3e e301 f7be
00000220: 6c8e 28be acfc 8b3e 4d5b 693f 2c30 0c40
00000230: 9508 b93f 699f 293f e979 0d3e 994f 86bd
00000240: 74cd cfbe d812 d1bd b3f6 c1be c803 273e
00000250: 1134 3b3f b238 b5be 5841 37be c6f6 46be
00000260: fdda d8be 6451 a43e e483 47be 670b d2be
00000270: 8c53 7abf 4ea1 54bf 8474 46bf 9516 8cbe
00000280: 868f 0cbe 2b38 2c3e e3cb fe3d c8c8 63bd
00000290: abcd 1dbf 8382 113f 904a a73f 3f6b 9a3f
000002a0: 80d2 a3bf 3a43 78bf be78 51bf d967 55be
000002b0: e937 a7be 8786 94bd 5f65 efbe c4e1 a93c
000002c0: fa1b 3fbf 7e9a f4bd fa9c 8cbe 37b2 7fbe
000002d0: 8941 0abe e581 c9be 5e50 31bf d693 98be
000002e0: d93d f1bf 1f63 b43e af14 213f ee71 f23f
000002f0: ffe7 abbc 0e34 e6bd 762e 73be 46db bd3e
00000300: 829c 68bf 3cf9 f5bf e676 7bbf 22bb ce3d
00000310: fab4 e63e 608e ac3c 1d18 5a3e 968e 20be
00000320: 934d d33c 8879 343f d889 ae3f ccac fb3e
00000330: a671 983c d9cc 88be ac33 323f a1e5 a4bd
00000340: c0e3 ecbe 841f 0abe 310b debe 6d3c 3f3f
00000350: 7b50 db3f cc3b 70be b191 9cbc 1cfb 10bf
00000360: 60d6 c9be 704a 60bf ea25 a3be d064 733e
00000370: 5d37 ba3f fb68 5abd 712b 593e 7b37 163f
00000380: c9e5 94be 0a2c 853c 5a84 163f e34b 91bd
00000390: eef4 acbd b82e ff3f c68b 293f cac6 d0bd
000003a0: e081 523f 2dae dd3e a39c 553d ea1a 953f
000003b0: ab19 1b3e c5c3 e3be 6cb0 50bd ad28 01bd
000003c0: 16c3 39be a9e1 b9bf 1712 8abe 8581 273f
000003d0: f535 64be 2415 bbbc a3d4 503e 3510 32bf
000003e0: 922b aebd 8b62 333e a1a0 6d3f 2cb9 373f
000003f0: eebd 1cbe af31 e43e 7023 5ebe 83ba 48bf
-0.013665683 -0.14893058 0.31256044 -0.5197888 -0.737261 -0.49835697 0.013701538 -0.12424988
-0.15072195 -0.25176105 -1.1445988 0.1666566 -0.84018016 2.3800619 0.26566002 0.77950126
-1.1562388 -0.46808487 0.018200072 0.26502275 0.109285116 -0.20043606 -0.19392039 -0.27687553
0.19985688 0.46493068 0.4655859 -0.16266146 -0.22827339 0.085545525 -0.6384552 -1.698093
0.10810332 0.28995416 -0.61471623 -0.20229927 0.17724861 -0.35561848 -0.04321095 -0.060416743
-1.339377 -0.5422594 -0.07537026 -0.7971771 0.30408466 0.27585027 -0.052679613 0.09429675
0.8043093 0.5304125 0.70873547 -0.77079725 -0.4784451 -0.72946167 -0.21531925 -1.1832206
0.05812301 -0.35502133 2.190303 -0.04610819 0.35353443 -1.1876769 -0.28328443 -0.031328026
0.11961962 -0.19869535 0.5780182 0.49324697 -0.8382683 -0.10753333 0.36593628 -0.5166468
-0.2875691 -0.5097406 0.32201555 0.17974369 -1.7816937 -0.7416487 0.8213644 1.1667241
-0.43807954 -0.048514236 0.69742435 0.11483101 0.6475988 0.026403861 0.35524163 0.019631209
0.6881555 -0.014487825 0.3107682 0.7420735 0.7773736 -1.143565 -1.7542685 -0.9237183
0.9475974 0.012900909 0.0315941 -0.18959887 0.2248771 0.95146024 -0.5572551 -2.8347323
0.22135922 1.1153389 0.5918315 -0.39184776 0.309578 -0.014573158 0.3805712 -0.20758876
-1.1452 -0.5465147 0.10386438 -0.7275166 -0.13041957 -0.014088383 -0.3824437 0.034478467
-0.23846498 -0.6097832 0.4147972 0.47425756 1.5557604 0.060678627 -0.007809627 0.36452267
-0.019981723 -0.96119595 -2.137733 -0.57098794 0.39099708 0.6669367 0.16836052 -0.48243627
-0.1646058 0.2734121 0.9115494 2.1904402 1.4455744 0.66258866 0.13816036 -0.06558151
-0.40586436 -0.10208672 -0.3788353 0.16310036 0.7312632 -0.35394818 -0.1789602 -0.19430074
-0.42354575 0.32093346 -0.19483906 -0.41024324 -0.9778373 -0.8305863 -0.7752154 -0.2736098
-0.13726625 0.16818301 0.12441232 -0.0556114 -0.6164195 0.5683977 1.306963 1.2063979
-1.2798615 -0.9697758 -0.8182486 -0.20840396 -0.32659844 -0.072522216 -0.46757028 0.020737536
-0.74652064 -0.119435295 -0.27463514 -0.24970327 -0.13501562 -0.39356914 -0.69263256 -0.2980029
-1.8847 0.35231873 0.62922186 1.8941019 -0.020984648 -0.112403974 -0.23748192 0.37081355
-0.9086381 -1.9216685 -0.982283 0.100942865 0.4505995 0.021063983 0.21298261 -0.15679392
0.025793826 0.7049794 1.3635817 0.4915527 0.01860888 -0.26718786 0.69610095 -0.08051611
-0.4626751 -0.13488585 -0.43367913 0.7470158 1.7133936 -0.2346031 -0.01911244 -0.5663316
-0.39421368 -0.8761358 -0.31864864 0.23768926 1.4548146 -0.053322773 0.21207978 0.58678406
-0.29081562 0.016256351 0.587957 -0.07094552 -0.08445154 1.9936132 0.662289 -0.10194166
0.82229424 0.43296948 0.052151334 1.1648839 0.1514651 -0.44485298 -0.0509495 -0.031532932
-0.18140826 -1.4521991 -0.26966926 0.65432006 -0.22286208 -0.02283723 0.20393614 -0.6955598
-0.08504404 0.1751806 0.92823225 0.71766925 -0.15306827 0.44569156 -0.21693206 -0.78409594

642 f4 [32]
00000000: 1975 543f 97c1 4cbd b0e1 edbc dcf6 ac3f
00000010: 1bc8 bb3f ae83 85be 6065 cd3d 0698 58bd
00000020: 8db2 b33e 682a 0abf 5a41 e23f 8c7b 8c3e
00000030: 08ee ac3f a815 183d 96a8 e73f f299 3ec0
00000040: 03c4 453f 5099 1540 e470 e83e 62e7 9e3f
00000050: 4f25 6f3e fb91 2240 f8e6 eebf 1039 bfbd
00000060: d050 9abd 589e 0dc0 79de 823e fa1c 8d3e
00000070: 0660 57bf 02dc 81be 8e7c 9dbf 40d2 f53e
0.82991177 -0.04998931 -0.02903828 1.3512836 1.4670442 -0.26077026 0.10029101 -0.052879356
0.3509716 -0.53970957 1.7676194 0.2743801 1.3510141 0.037130028 1.8098323 -2.978146
0.77252215 2.3374825 0.4539863 1.2414362 0.23354076 2.54016 -1.8664236 -0.09337056
-0.07534945 -2.2127895 0.25560358 0.2756117 -0.84130895 -0.25363165 -1.2303636 0.4801197

644 f4 [8, 32, 1, 1]
00000000: cbe0 febc 4258 9fbe c184 a4be 64eb 97be
00000010: e7ec 633e 3b8d c03c 3f65 fabe 3950 2cbe
00000020: f374 92be 7ec8 b8be 7855 11bf 83c6 bdbd
00000030: c721 15be 0dff ac3e c62f 303e 0ce0 b33e
00000040: 9745 0b3e 26e3 823e 5141 e2be 4dbc 2cbe
00000050: 3960 3a3e d549 0c3e 5f92 17be 4782 13be
00000060: 5e0d 93bc 904f 0bbe 340a c93c ced3 07be
00000070: 0d4f 0fbf 3813 c2be 27f0 bc3e 2154 a03e
00000080: 8df4 503e a390 d43d 997b 463e f95a 84be
00000090: bb21 563d c4ca af3e dad7 6a3e b9af b4be
000000a0: 524d 793e 1ede 953e 4b0e 90bd 236c 81be
000000b0: d996 cb3e 5443 28bd 13e1 28bf 0ba1 0f3f
000000c0: 761f 173e adff afbe 5d02 9cbe f63f d5be
000000d0: af15 b03e 5a03 993e 65c0 e53e 2728 b0bd
000000e0: ab50 863d 7316 9f3e d076 9dbc 2cdb c2bd
000000f0: a29d ccbd c702 a73e 1e2d 243f bf1e 57be
00000100: f1cd cf3e 65c5 0ebf 1b1a 19be 905d c53d
00000110: cd0a 4cbe cdfe 6cbe 2b99 e2be 5887 c13e
00000120: f956 82be 9ff5 de3e 97d8 2d3d 191a 2b3f
00000130: 2d1e afbe 1451 d03e c046 eebe 732e 233d
00000140: e239 3c3e 6ed5 a13e 7f1e 25be 452e afbe
00000150: 5ec7 3ebe acbb 38bf ec9d e7bd 8a47 e83e
00000160: 825a f5be ee3c a03e f073 b53d e16f 933e
00000170: 3a2f 9b3e 7775 e4be 072a 103f d41e d53c
00000180: d957 673e 8bc1 1abe 6db8 57be de57 53bc
00000190: 5530 043f 1180 183e e0ea a03d 9d07 ef3e
000001a0: f818 e1bd 5692 85be 151f 0abe dab1 df3e
000001b0: 434e 553e 5296 3dbe 1083 263d a96a 843e
000001c0: 731c 843e 6457 303e cf2a 893e 4646 dcbe
000001d0: 3f3b 40bf 4f43 023f bd94 55be 3bc3 0abc
000001e0: c842 873c 7f2f 003f 50ee 7a3f 8178 abbd
000001f0: 9297 c73e 8cd5 303e dde8 0abf bb15 d1be
00000200: 3b70 f0bd afd4 6b3d ee72 9cbc 029a 2ebf
00000210: 640c 97be 92c9 77be 4676 743e db2c 8d3d
00000220: d704 92be 280d 46be 7950 6b3e dbd7 103e
00000230: 7a1a 393e 2af8 25be 85d4 0ebe 641d ea3e
00000240: e851 8ebe 97cc 383e a366 493c 3e98 0dbe
00000250: 734b 9c3e 8fbc a2bd a33e 82bc 8d8a fabd
00000260: bb3c 4cbe 1bd2 533f 636e 873e 446b c83d
00000270: 3f82 cfbd 54bf 603e b007 48bd c66b cbbe
00000280: 4f07 a4be d501 8f3c 5d2e 6abe 9d77 0abf
00000290: bef2 d83e 0bfd 0b3d 88dc 0ebd 925b 0fbe
000002a0: 7539 edbe e886 7b3e 36c1 8a3d 9737 63be
000002b0: 09c2 f53e 9aad 66be 74d9 05be 3eea 0fbe
000002c0: b06f 8c3d 1633 833e 520b 153e 537e f53d
000002d0: fd57 86be 5228 7fbe 9710 a8be 1896 d13b
000002e0: 4750 e0be e024 6fbe 33f5 e0bd e2b7 683e
000002f0: a5d2 623e 2384 19bd caf0 fcbd 7ad1 85be
00000300: 8f3c da3c 01e3 a1be 43b0 1fbd 69b0 003e
00000310: a65c 693e baa8 44be 12d8 2cbe e586 8e3e
00000320: d82e e33e 37ff 5ebe a4cf 083e 4863 a43e
00000330: e055 433d 2748 6bbe 8f5a 0d3c daf7 a2be
00000340: 88cd a5be 43c3 42be c2b6 bebe 5f0a 003e
00000350: 435f 83bd 1ab8 c3bd 8b1e f83b c25f 063f
00000360: dc84 3ebc 0f24 633e 9466 ed3e 27b8 e9be
00000370: dedb 553e 5bed 73be c7bc 41be a073 783d
00000380: 1be5 00bf 2f6f da3d e6c4 ebbd 3063 d4be
00000390: 6e70 f33e 4621 a5bd 76aa ec3d 4ce6 6e3e
000003a0: 76bc 9bbe b2a5 07bf 9421 1abf 9707 2abd
000003b0: c5b0 22bf af7a ce3d 670c 49be 7489 4a3e
000003c0: 9c6b 263e 23a8 e5be f41e 87be b0aa 6bbd
000003d0: acdb 20be 50af bf3d 13b3 273e e67f a63d
000003e0: 04b1 d9be dfee 663e c548 8abc 58df 0b3f
000003f0: c4e5 913e bab6 493e 274d 913e 6ff5 163e
-0.031113049 -0.31122023 -0.32132533 -0.29671776 0.2225834 0.023504844 -0.4890537 -0.16827478
-0.2860485 -0.36090463 -0.5677104 -0.09266379 -0.14563666 0.33788338 0.17205724 0.35131872
0.13600765 0.25563926 -0.44190457 -0.16868706 0.18200769 0.1370004 -0.1480193 -0.14405166
-0.01795071 -0.1360457 0.024540998 -0.13264391 -0.55979997 -0.37905288 0.36901972 0.31314185
0.20405789 0.1037915 0.19383086 -0.25850657 0.05227826 0.34334385 0.22933903 -0.35290316
0.24345902 0.29271024 -0.07033976 -0.25277814 0.39763525 -0.041079834 -0.65968436 0.5610511
0.14758095 -0.34374753 -0.30470553 -0.4165036 0.34391543 0.2988537 0.44873348 -0.086014085
0.06558355 0.31071815 -0.019221693 -0.0951446 -0.099910036 0.32619306 0.64131343 -0.21007822
0.40586808 -0.5576995 -0.14951365 0.09636986 -0.19925995 -0.23144074 -0.44257483 0.37798572
-0.2545698 0.4354677 0.042442884 0.66836697 -0.3420271 0.40686858 -0.46538353 0.03983922
0.18381456 0.31608146 -0.16124915 -0.34214988 -0.1863074 -0.72161365 -0.11309418 0.4536708
-0.47920614 0.31296486 0.08860004 0.28796294 0.30309469 -0.4462087 0.5631413 0.026015677
0.22592105 -0.15112893 -0.21066447 -0.012899367 0.5163625 0.14892603 0.07857299 0.46685496
-0.109910905 -0.26088208 -0.1348842 0.43690377 0.20830636 -0.18514374 0.040652335 0.25862625
0.25802955 0.17220837 0.26790473 -0.43022364 -0.750904 0.50883955 -0.2085752 -0.008469398
0.016511336 0.50072473 0.98019886 -0.08372594 0.38982826 0.17268962 -0.5426157 -0.40836892
-0.11740156 0.057575878 -0.019097771 -0.6820375 -0.2950164 -0.24197987 0.23873243 0.06893321
-0.28519318 -0.19340956 0.22979917 0.14144842 0.18076506 -0.16207948 -0.13948257 0.45725548
-0.27796865 0.18046795 0.012292537 -0.13827607 0.30526313 -0.07946121 -0.015899008 -0.12233458
-0.19945042 0.8274247 0.26451406 0.09786084 -0.10132264 0.21947986 -0.048835456 -0.39730662
-0.32036826 0.017456928 -0.22869249 -0.54088765 0.42372698 0.034176867 -0.034878284 -0.13999775
-0.463329 0.24563181 0.06775133 -0.22189175 0.479996 -0.22527161 -0.13071233 -0.140542
0.0685724 0.25624913 0.145551 0.11986985 -0.26239005 -0.24917725 -0.32825157 0.0063960664
-0.43811247 -0.2335391 -0.10984268 0.22726396 0.22150667 -0.03747953 -0.12350614 -0.2613638
0.026640205 -0.31618503 -0.038986456 0.12567295 0.22789249 -0.19204989 -0.168793 0.2783729
0.44371676 -0.21777044 0.13360459 0.32106996 0.04768932 -0.22976743 0.008627548 -0.3182972
-0.3238337 -0.19019799 -0.37248808 0.12503956 -0.06414654 -0.09556599 0.0075720004 0.52489865
-0.011628356 0.22181724 0.46367323 -0.4564831 0.20884654 -0.23821013 -0.18919669 0.060657144
-0.5034959 0.10665738 -0.11512165 -0.41481924 0.47546715 -0.08062987 0.1155595 0.23330039
-0.30417222 -0.52987206 -0.60207486 -0.041511144 -0.6355098 0.10081994 -0.19633637 0.19778997
0.16251987 -0.4485484 -0.26390803 -0.057535827 -0.15708798 0.0935961 0.16376905 0.081298634
-0.42517865 0.2255206 -0.016880402 0.5463767 0.2849561 0.19698611 0.28379175 0.14742063

645 f4 [8]
00000000: c374 8c3f 8e92 2bbe 6cd8 6a3d 115e 59bf
00000010: 5693 733e 416e 963e d6b5 0f3f 16c3 883f
1.0973133 -0.16755125 0.057335302 -0.8490916 0.23786673 0.29380992 0.56136835 1.0684536
